{
  "modelTopology": {
    "keras_version": "2.1.6-tf",
    "backend": "tensorflow",
    "model_config": {
      "class_name": "Model",
      "config": {
        "name": "emoji_autoencoder",
        "layers": [
          {
            "name": "input_1",
            "class_name": "InputLayer",
            "config": {
              "batch_input_shape": [
                null,
                32,
                32,
                1
              ],
              "dtype": "float32",
              "sparse": false,
              "name": "input_1"
            },
            "inbound_nodes": []
          },
          {
            "name": "Encoder",
            "class_name": "Model",
            "config": {
              "name": "Encoder",
              "layers": [
                {
                  "name": "input_32x32",
                  "class_name": "InputLayer",
                  "config": {
                    "batch_input_shape": [
                      null,
                      32,
                      32,
                      1
                    ],
                    "dtype": "float32",
                    "sparse": false,
                    "name": "input_32x32"
                  },
                  "inbound_nodes": []
                },
                {
                  "name": "Convolution1",
                  "class_name": "Conv2D",
                  "config": {
                    "name": "Convolution1",
                    "trainable": true,
                    "dtype": "float32",
                    "filters": 16,
                    "kernel_size": [
                      3,
                      3
                    ],
                    "strides": [
                      1,
                      1
                    ],
                    "padding": "same",
                    "data_format": "channels_last",
                    "dilation_rate": [
                      1,
                      1
                    ],
                    "activation": "relu",
                    "use_bias": true,
                    "kernel_initializer": {
                      "class_name": "VarianceScaling",
                      "config": {
                        "scale": 1.0,
                        "mode": "fan_avg",
                        "distribution": "uniform",
                        "seed": null,
                        "dtype": "float32"
                      }
                    },
                    "bias_initializer": {
                      "class_name": "Zeros",
                      "config": {
                        "dtype": "float32"
                      }
                    },
                    "kernel_regularizer": null,
                    "bias_regularizer": null,
                    "activity_regularizer": null,
                    "kernel_constraint": null,
                    "bias_constraint": null
                  },
                  "inbound_nodes": [
                    [
                      [
                        "input_32x32",
                        0,
                        0,
                        {}
                      ]
                    ]
                  ]
                },
                {
                  "name": "shrink_16x16",
                  "class_name": "MaxPooling2D",
                  "config": {
                    "name": "shrink_16x16",
                    "trainable": true,
                    "dtype": "float32",
                    "pool_size": [
                      2,
                      2
                    ],
                    "padding": "same",
                    "strides": [
                      2,
                      2
                    ],
                    "data_format": "channels_last"
                  },
                  "inbound_nodes": [
                    [
                      [
                        "Convolution1",
                        0,
                        0,
                        {}
                      ]
                    ]
                  ]
                },
                {
                  "name": "Convolution2",
                  "class_name": "Conv2D",
                  "config": {
                    "name": "Convolution2",
                    "trainable": true,
                    "dtype": "float32",
                    "filters": 8,
                    "kernel_size": [
                      3,
                      3
                    ],
                    "strides": [
                      1,
                      1
                    ],
                    "padding": "same",
                    "data_format": "channels_last",
                    "dilation_rate": [
                      1,
                      1
                    ],
                    "activation": "relu",
                    "use_bias": true,
                    "kernel_initializer": {
                      "class_name": "VarianceScaling",
                      "config": {
                        "scale": 1.0,
                        "mode": "fan_avg",
                        "distribution": "uniform",
                        "seed": null,
                        "dtype": "float32"
                      }
                    },
                    "bias_initializer": {
                      "class_name": "Zeros",
                      "config": {
                        "dtype": "float32"
                      }
                    },
                    "kernel_regularizer": null,
                    "bias_regularizer": null,
                    "activity_regularizer": null,
                    "kernel_constraint": null,
                    "bias_constraint": null
                  },
                  "inbound_nodes": [
                    [
                      [
                        "shrink_16x16",
                        0,
                        0,
                        {}
                      ]
                    ]
                  ]
                },
                {
                  "name": "shrink_8x8",
                  "class_name": "MaxPooling2D",
                  "config": {
                    "name": "shrink_8x8",
                    "trainable": true,
                    "dtype": "float32",
                    "pool_size": [
                      2,
                      2
                    ],
                    "padding": "same",
                    "strides": [
                      2,
                      2
                    ],
                    "data_format": "channels_last"
                  },
                  "inbound_nodes": [
                    [
                      [
                        "Convolution2",
                        0,
                        0,
                        {}
                      ]
                    ]
                  ]
                },
                {
                  "name": "conv2d",
                  "class_name": "Conv2D",
                  "config": {
                    "name": "conv2d",
                    "trainable": true,
                    "dtype": "float32",
                    "filters": 4,
                    "kernel_size": [
                      3,
                      3
                    ],
                    "strides": [
                      1,
                      1
                    ],
                    "padding": "same",
                    "data_format": "channels_last",
                    "dilation_rate": [
                      1,
                      1
                    ],
                    "activation": "relu",
                    "use_bias": true,
                    "kernel_initializer": {
                      "class_name": "VarianceScaling",
                      "config": {
                        "scale": 1.0,
                        "mode": "fan_avg",
                        "distribution": "uniform",
                        "seed": null,
                        "dtype": "float32"
                      }
                    },
                    "bias_initializer": {
                      "class_name": "Zeros",
                      "config": {
                        "dtype": "float32"
                      }
                    },
                    "kernel_regularizer": null,
                    "bias_regularizer": null,
                    "activity_regularizer": null,
                    "kernel_constraint": null,
                    "bias_constraint": null
                  },
                  "inbound_nodes": [
                    [
                      [
                        "shrink_8x8",
                        0,
                        0,
                        {}
                      ]
                    ]
                  ]
                },
                {
                  "name": "shrink_4x4",
                  "class_name": "MaxPooling2D",
                  "config": {
                    "name": "shrink_4x4",
                    "trainable": true,
                    "dtype": "float32",
                    "pool_size": [
                      2,
                      2
                    ],
                    "padding": "same",
                    "strides": [
                      2,
                      2
                    ],
                    "data_format": "channels_last"
                  },
                  "inbound_nodes": [
                    [
                      [
                        "conv2d",
                        0,
                        0,
                        {}
                      ]
                    ]
                  ]
                },
                {
                  "name": "matrix_to_vector",
                  "class_name": "Flatten",
                  "config": {
                    "name": "matrix_to_vector",
                    "trainable": true,
                    "dtype": "float32",
                    "data_format": "channels_last"
                  },
                  "inbound_nodes": [
                    [
                      [
                        "shrink_4x4",
                        0,
                        0,
                        {}
                      ]
                    ]
                  ]
                },
                {
                  "name": "link_flat_to_64x1",
                  "class_name": "Dense",
                  "config": {
                    "name": "link_flat_to_64x1",
                    "trainable": true,
                    "dtype": "float32",
                    "units": 64,
                    "activation": "relu",
                    "use_bias": true,
                    "kernel_initializer": {
                      "class_name": "VarianceScaling",
                      "config": {
                        "scale": 1.0,
                        "mode": "fan_avg",
                        "distribution": "uniform",
                        "seed": null,
                        "dtype": "float32"
                      }
                    },
                    "bias_initializer": {
                      "class_name": "Zeros",
                      "config": {
                        "dtype": "float32"
                      }
                    },
                    "kernel_regularizer": null,
                    "bias_regularizer": null,
                    "activity_regularizer": null,
                    "kernel_constraint": null,
                    "bias_constraint": null
                  },
                  "inbound_nodes": [
                    [
                      [
                        "matrix_to_vector",
                        0,
                        0,
                        {}
                      ]
                    ]
                  ]
                },
                {
                  "name": "output_6x1",
                  "class_name": "Dense",
                  "config": {
                    "name": "output_6x1",
                    "trainable": true,
                    "dtype": "float32",
                    "units": 6,
                    "activation": "tanh",
                    "use_bias": true,
                    "kernel_initializer": {
                      "class_name": "VarianceScaling",
                      "config": {
                        "scale": 1.0,
                        "mode": "fan_avg",
                        "distribution": "uniform",
                        "seed": null,
                        "dtype": "float32"
                      }
                    },
                    "bias_initializer": {
                      "class_name": "Zeros",
                      "config": {
                        "dtype": "float32"
                      }
                    },
                    "kernel_regularizer": null,
                    "bias_regularizer": null,
                    "activity_regularizer": null,
                    "kernel_constraint": null,
                    "bias_constraint": null
                  },
                  "inbound_nodes": [
                    [
                      [
                        "link_flat_to_64x1",
                        0,
                        0,
                        {}
                      ]
                    ]
                  ]
                }
              ],
              "input_layers": [
                [
                  "input_32x32",
                  0,
                  0
                ]
              ],
              "output_layers": [
                [
                  "output_6x1",
                  0,
                  0
                ]
              ]
            },
            "inbound_nodes": [
              [
                [
                  "input_1",
                  0,
                  0,
                  {}
                ]
              ]
            ]
          },
          {
            "name": "Decoder",
            "class_name": "Model",
            "config": {
              "name": "Decoder",
              "layers": [
                {
                  "name": "input_6x1",
                  "class_name": "InputLayer",
                  "config": {
                    "batch_input_shape": [
                      null,
                      6
                    ],
                    "dtype": "float32",
                    "sparse": false,
                    "name": "input_6x1"
                  },
                  "inbound_nodes": []
                },
                {
                  "name": "activate_input",
                  "class_name": "Dense",
                  "config": {
                    "name": "activate_input",
                    "trainable": true,
                    "dtype": "float32",
                    "units": 64,
                    "activation": "relu",
                    "use_bias": true,
                    "kernel_initializer": {
                      "class_name": "VarianceScaling",
                      "config": {
                        "scale": 1.0,
                        "mode": "fan_avg",
                        "distribution": "uniform",
                        "seed": null,
                        "dtype": "float32"
                      }
                    },
                    "bias_initializer": {
                      "class_name": "Zeros",
                      "config": {
                        "dtype": "float32"
                      }
                    },
                    "kernel_regularizer": null,
                    "bias_regularizer": null,
                    "activity_regularizer": null,
                    "kernel_constraint": null,
                    "bias_constraint": null
                  },
                  "inbound_nodes": [
                    [
                      [
                        "input_6x1",
                        0,
                        0,
                        {}
                      ]
                    ]
                  ]
                },
                {
                  "name": "link_reshape_64x1",
                  "class_name": "Dense",
                  "config": {
                    "name": "link_reshape_64x1",
                    "trainable": true,
                    "dtype": "float32",
                    "units": 64,
                    "activation": "relu",
                    "use_bias": true,
                    "kernel_initializer": {
                      "class_name": "VarianceScaling",
                      "config": {
                        "scale": 1.0,
                        "mode": "fan_avg",
                        "distribution": "uniform",
                        "seed": null,
                        "dtype": "float32"
                      }
                    },
                    "bias_initializer": {
                      "class_name": "Zeros",
                      "config": {
                        "dtype": "float32"
                      }
                    },
                    "kernel_regularizer": null,
                    "bias_regularizer": null,
                    "activity_regularizer": null,
                    "kernel_constraint": null,
                    "bias_constraint": null
                  },
                  "inbound_nodes": [
                    [
                      [
                        "activate_input",
                        0,
                        0,
                        {}
                      ]
                    ]
                  ]
                },
                {
                  "name": "reshape_8x8",
                  "class_name": "Reshape",
                  "config": {
                    "name": "reshape_8x8",
                    "trainable": true,
                    "dtype": "float32",
                    "target_shape": [
                      8,
                      8,
                      1
                    ]
                  },
                  "inbound_nodes": [
                    [
                      [
                        "link_reshape_64x1",
                        0,
                        0,
                        {}
                      ]
                    ]
                  ]
                },
                {
                  "name": "conv2d_1",
                  "class_name": "Conv2D",
                  "config": {
                    "name": "conv2d_1",
                    "trainable": true,
                    "dtype": "float32",
                    "filters": 8,
                    "kernel_size": [
                      3,
                      3
                    ],
                    "strides": [
                      1,
                      1
                    ],
                    "padding": "same",
                    "data_format": "channels_last",
                    "dilation_rate": [
                      1,
                      1
                    ],
                    "activation": "relu",
                    "use_bias": true,
                    "kernel_initializer": {
                      "class_name": "VarianceScaling",
                      "config": {
                        "scale": 1.0,
                        "mode": "fan_avg",
                        "distribution": "uniform",
                        "seed": null,
                        "dtype": "float32"
                      }
                    },
                    "bias_initializer": {
                      "class_name": "Zeros",
                      "config": {
                        "dtype": "float32"
                      }
                    },
                    "kernel_regularizer": null,
                    "bias_regularizer": null,
                    "activity_regularizer": null,
                    "kernel_constraint": null,
                    "bias_constraint": null
                  },
                  "inbound_nodes": [
                    [
                      [
                        "reshape_8x8",
                        0,
                        0,
                        {}
                      ]
                    ]
                  ]
                },
                {
                  "name": "grow_16x16",
                  "class_name": "UpSampling2D",
                  "config": {
                    "name": "grow_16x16",
                    "trainable": true,
                    "dtype": "float32",
                    "size": [
                      2,
                      2
                    ],
                    "data_format": "channels_last"
                  },
                  "inbound_nodes": [
                    [
                      [
                        "conv2d_1",
                        0,
                        0,
                        {}
                      ]
                    ]
                  ]
                },
                {
                  "name": "conv2d_2",
                  "class_name": "Conv2D",
                  "config": {
                    "name": "conv2d_2",
                    "trainable": true,
                    "dtype": "float32",
                    "filters": 16,
                    "kernel_size": [
                      3,
                      3
                    ],
                    "strides": [
                      1,
                      1
                    ],
                    "padding": "same",
                    "data_format": "channels_last",
                    "dilation_rate": [
                      1,
                      1
                    ],
                    "activation": "relu",
                    "use_bias": true,
                    "kernel_initializer": {
                      "class_name": "VarianceScaling",
                      "config": {
                        "scale": 1.0,
                        "mode": "fan_avg",
                        "distribution": "uniform",
                        "seed": null,
                        "dtype": "float32"
                      }
                    },
                    "bias_initializer": {
                      "class_name": "Zeros",
                      "config": {
                        "dtype": "float32"
                      }
                    },
                    "kernel_regularizer": null,
                    "bias_regularizer": null,
                    "activity_regularizer": null,
                    "kernel_constraint": null,
                    "bias_constraint": null
                  },
                  "inbound_nodes": [
                    [
                      [
                        "grow_16x16",
                        0,
                        0,
                        {}
                      ]
                    ]
                  ]
                },
                {
                  "name": "grow_32x32",
                  "class_name": "UpSampling2D",
                  "config": {
                    "name": "grow_32x32",
                    "trainable": true,
                    "dtype": "float32",
                    "size": [
                      2,
                      2
                    ],
                    "data_format": "channels_last"
                  },
                  "inbound_nodes": [
                    [
                      [
                        "conv2d_2",
                        0,
                        0,
                        {}
                      ]
                    ]
                  ]
                },
                {
                  "name": "output_32x32",
                  "class_name": "Conv2D",
                  "config": {
                    "name": "output_32x32",
                    "trainable": true,
                    "dtype": "float32",
                    "filters": 1,
                    "kernel_size": [
                      3,
                      3
                    ],
                    "strides": [
                      1,
                      1
                    ],
                    "padding": "same",
                    "data_format": "channels_last",
                    "dilation_rate": [
                      1,
                      1
                    ],
                    "activation": "sigmoid",
                    "use_bias": true,
                    "kernel_initializer": {
                      "class_name": "VarianceScaling",
                      "config": {
                        "scale": 1.0,
                        "mode": "fan_avg",
                        "distribution": "uniform",
                        "seed": null,
                        "dtype": "float32"
                      }
                    },
                    "bias_initializer": {
                      "class_name": "Zeros",
                      "config": {
                        "dtype": "float32"
                      }
                    },
                    "kernel_regularizer": null,
                    "bias_regularizer": null,
                    "activity_regularizer": null,
                    "kernel_constraint": null,
                    "bias_constraint": null
                  },
                  "inbound_nodes": [
                    [
                      [
                        "grow_32x32",
                        0,
                        0,
                        {}
                      ]
                    ]
                  ]
                }
              ],
              "input_layers": [
                [
                  "input_6x1",
                  0,
                  0
                ]
              ],
              "output_layers": [
                [
                  "output_32x32",
                  0,
                  0
                ]
              ]
            },
            "inbound_nodes": [
              [
                [
                  "Encoder",
                  1,
                  0,
                  {}
                ]
              ]
            ]
          }
        ],
        "input_layers": [
          [
            "input_1",
            0,
            0
          ]
        ],
        "output_layers": [
          [
            "Decoder",
            1,
            0
          ]
        ]
      }
    },
    "training_config": {
      "optimizer_config": {
        "class_name": "Adadelta",
        "config": {
          "lr": 1.0,
          "rho": 0.95,
          "decay": 9.999999747378752e-06,
          "epsilon": 1e-07
        }
      },
      "loss": "mean_squared_error",
      "metrics": [],
      "weighted_metrics": null,
      "sample_weight_mode": null,
      "loss_weights": null
    }
  },
  "weightsManifest": [
    {
      "paths": [
        "group1-shard1of1"
      ],
      "weights": [
        {
          "name": "activate_input/kernel",
          "shape": [
            6,
            64
          ],
          "dtype": "float32"
        },
        {
          "name": "activate_input/bias",
          "shape": [
            64
          ],
          "dtype": "float32"
        },
        {
          "name": "link_reshape_64x1/kernel",
          "shape": [
            64,
            64
          ],
          "dtype": "float32"
        },
        {
          "name": "link_reshape_64x1/bias",
          "shape": [
            64
          ],
          "dtype": "float32"
        },
        {
          "name": "conv2d_1/kernel",
          "shape": [
            3,
            3,
            1,
            8
          ],
          "dtype": "float32"
        },
        {
          "name": "conv2d_1/bias",
          "shape": [
            8
          ],
          "dtype": "float32"
        },
        {
          "name": "conv2d_2/kernel",
          "shape": [
            3,
            3,
            8,
            16
          ],
          "dtype": "float32"
        },
        {
          "name": "conv2d_2/bias",
          "shape": [
            16
          ],
          "dtype": "float32"
        },
        {
          "name": "output_32x32/kernel",
          "shape": [
            3,
            3,
            16,
            1
          ],
          "dtype": "float32"
        },
        {
          "name": "output_32x32/bias",
          "shape": [
            1
          ],
          "dtype": "float32"
        },
        {
          "name": "Convolution1/kernel",
          "shape": [
            3,
            3,
            1,
            16
          ],
          "dtype": "float32"
        },
        {
          "name": "Convolution1/bias",
          "shape": [
            16
          ],
          "dtype": "float32"
        },
        {
          "name": "Convolution2/kernel",
          "shape": [
            3,
            3,
            16,
            8
          ],
          "dtype": "float32"
        },
        {
          "name": "Convolution2/bias",
          "shape": [
            8
          ],
          "dtype": "float32"
        },
        {
          "name": "conv2d/kernel",
          "shape": [
            3,
            3,
            8,
            4
          ],
          "dtype": "float32"
        },
        {
          "name": "conv2d/bias",
          "shape": [
            4
          ],
          "dtype": "float32"
        },
        {
          "name": "link_flat_to_64x1/kernel",
          "shape": [
            64,
            64
          ],
          "dtype": "float32"
        },
        {
          "name": "link_flat_to_64x1/bias",
          "shape": [
            64
          ],
          "dtype": "float32"
        },
        {
          "name": "output_6x1/kernel",
          "shape": [
            64,
            6
          ],
          "dtype": "float32"
        },
        {
          "name": "output_6x1/bias",
          "shape": [
            6
          ],
          "dtype": "float32"
        }
      ]
    }
  ]
}